{
    "format": "layers-model",
    "generatedBy": "keras v2.4.0",
    "convertedBy": "TensorFlow.js Converter v2.7.0",
    "modelTopology": {
        "keras_version": "2.4.0",
        "backend": "tensorflow",
        "model_config": {
            "class_name": "Sequential",
            "config": {
                "name": "sequential_1",
                "layers": [
                    {
                        "class_name": "InputLayer",
                        "config": {
                            "batch_input_shape": [
                                null,
                                3
                            ],
                            "dtype": "float32",
                            "sparse": false,
                            "ragged": false,
                            "name": "flatten_1_input"
                        }
                    },
                    {
                        "class_name": "Flatten",
                        "config": {
                            "name": "flatten_1",
                            "trainable": true,
                            "batch_input_shape": [
                                null,
                                3
                            ],
                            "dtype": "float32",
                            "data_format": "channels_last"
                        }
                    },
                    {
                        "class_name": "Dense",
                        "config": {
                            "name": "dense_3",
                            "trainable": true,
                            "dtype": "float32",
                            "units": 300,
                            "activation": "relu",
                            "use_bias": true,
                            "kernel_initializer": {
                                "class_name": "GlorotUniform",
                                "config": {
                                    "seed": null
                                }
                            },
                            "bias_initializer": {
                                "class_name": "Zeros",
                                "config": {}
                            },
                            "kernel_regularizer": null,
                            "bias_regularizer": null,
                            "activity_regularizer": null,
                            "kernel_constraint": null,
                            "bias_constraint": null
                        }
                    },
                    {
                        "class_name": "Dense",
                        "config": {
                            "name": "dense_4",
                            "trainable": true,
                            "dtype": "float32",
                            "units": 100,
                            "activation": "relu",
                            "use_bias": true,
                            "kernel_initializer": {
                                "class_name": "GlorotUniform",
                                "config": {
                                    "seed": null
                                }
                            },
                            "bias_initializer": {
                                "class_name": "Zeros",
                                "config": {}
                            },
                            "kernel_regularizer": null,
                            "bias_regularizer": null,
                            "activity_regularizer": null,
                            "kernel_constraint": null,
                            "bias_constraint": null
                        }
                    },
                    {
                        "class_name": "Dense",
                        "config": {
                            "name": "dense_5",
                            "trainable": true,
                            "dtype": "float32",
                            "units": 10,
                            "activation": "softmax",
                            "use_bias": true,
                            "kernel_initializer": {
                                "class_name": "GlorotUniform",
                                "config": {
                                    "seed": null
                                }
                            },
                            "bias_initializer": {
                                "class_name": "Zeros",
                                "config": {}
                            },
                            "kernel_regularizer": null,
                            "bias_regularizer": null,
                            "activity_regularizer": null,
                            "kernel_constraint": null,
                            "bias_constraint": null
                        }
                    }
                ]
            }
        },
        "training_config": {
            "loss": "sparse_categorical_crossentropy",
            "metrics": [
                "accuracy"
            ],
            "weighted_metrics": null,
            "loss_weights": null,
            "optimizer_config": {
                "class_name": "SGD",
                "config": {
                    "name": "SGD",
                    "learning_rate": 0.009999999776482582,
                    "decay": 0,
                    "momentum": 0,
                    "nesterov": false
                }
            }
        }
    },
    "weightsManifest": [
        {
            "paths": [
                "group1-shard1of1.bin"
            ],
            "weights": [
                {
                    "name": "dense_3/kernel",
                    "shape": [
                        3,
                        300
                    ],
                    "dtype": "float32"
                },
                {
                    "name": "dense_3/bias",
                    "shape": [
                        300
                    ],
                    "dtype": "float32"
                },
                {
                    "name": "dense_4/kernel",
                    "shape": [
                        300,
                        100
                    ],
                    "dtype": "float32"
                },
                {
                    "name": "dense_4/bias",
                    "shape": [
                        100
                    ],
                    "dtype": "float32"
                },
                {
                    "name": "dense_5/kernel",
                    "shape": [
                        100,
                        10
                    ],
                    "dtype": "float32"
                },
                {
                    "name": "dense_5/bias",
                    "shape": [
                        10
                    ],
                    "dtype": "float32"
                }
            ]
        }
    ]
}